…
---------------------------------

***   If overwrite data   ***
---------------------------------
Overwrite:  False
Result file names:
./results/IndianPines/img/indian_pines_gaussian_mixture_full_linear_autoencoder_1.png
./results/IndianPines/data/indian_pines_gaussian_mixture_full_linear_autoencoder_1.txt
Result files exist 
Ending procedure [*]
========
Autoencoder : 		 linear 	 2
Dataloader:   		 indian_pines
Clustering:   		 clustering_kmeans
Param : 		 
========
List of points shape:  (21025, 200)

***   Creating autoencoder   ***
---------------------------------
Autoencoder(
  (encoder): Sequential(
    (0): Linear(in_features=200, out_features=90, bias=True)
    (1): Linear(in_features=90, out_features=40, bias=True)
    (2): Linear(in_features=40, out_features=20, bias=True)
  )
  (decoder): Sequential(
    (0): Linear(in_features=20, out_features=40, bias=True)
    (1): Linear(in_features=40, out_features=90, bias=True)
    (2): Linear(in_features=90, out_features=200, bias=True)
  )
)
Params size:   12
90  ||  90  ||  40  ||  40  ||  20  ||  20  ||  40  ||  40  ||  90  ||  90  ||  200  ||  200  ||  
Autoencoder learn file:  ./results/IndianPines/autoencoder/linear_2.pth

***   Checking if model file exists   ***
---------------------------------
	 File exists

***   Loading model from file   ***
---------------------------------
…
---------------------------------

***   If overwrite data   ***
---------------------------------
Overwrite:  False
Result file names:
./results/IndianPines/img/indian_pines_gaussian_mixture_full_linear_autoencoder_2.png
./results/IndianPines/data/indian_pines_gaussian_mixture_full_linear_autoencoder_2.txt
Result files exist 
Ending procedure [*]
========
Autoencoder : 		 linear 	 3
Dataloader:   		 indian_pines
Clustering:   		 clustering_kmeans
Param : 		 
========
List of points shape:  (21025, 200)

***   Creating autoencoder   ***
---------------------------------
Autoencoder(
  (encoder): Sequential(
    (0): Linear(in_features=200, out_features=90, bias=True)
    (1): Linear(in_features=90, out_features=40, bias=True)
    (2): Linear(in_features=40, out_features=15, bias=True)
    (3): Linear(in_features=15, out_features=7, bias=True)
  )
  (decoder): Sequential(
    (0): Linear(in_features=7, out_features=15, bias=True)
    (1): Linear(in_features=15, out_features=40, bias=True)
    (2): Linear(in_features=40, out_features=90, bias=True)
    (3): Linear(in_features=90, out_features=200, bias=True)
  )
)
Params size:   16
90  ||  90  ||  40  ||  40  ||  15  ||  15  ||  7  ||  7  ||  15  ||  15  ||  40  ||  40  ||  90  ||  90  ||  200  ||  200  ||  
Autoencoder learn file:  ./results/IndianPines/autoencoder/linear_3.pth

***   Checking if model file exists   ***
---------------------------------
	 File exists

***   Loading model from file   ***
---------------------------------
…
Autoencoder learn file:  ./results/IndianPines/autoencoder/none_none.pth

***   If overwrite data   ***
---------------------------------
Overwrite:  False
Result file names:
./results/IndianPines/img/indian_pines_gaussian_mixture_full_none_autoencoder_none.png
./results/IndianPines/data/indian_pines_gaussian_mixture_full_none_autoencoder_none.txt
Result files exist 
Ending procedure [*]
========
Autoencoder : 		 convolutional 	 1
Dataloader:   		 indian_pines
Clustering:   		 clustering_kmeans
Param : 		 
========
List of points shape:  (21025, 200)

***   Creating autoencoder   ***
---------------------------------
First size:  200
Autoencoder(
  (encoder_conv): Conv1d(1, 6, kernel_size=(9,), stride=(1,))
  (encoder_lin): Sequential(
    (0): Linear(in_features=1152, out_features=500, bias=True)
    (1): Linear(in_features=500, out_features=200, bias=True)
    (2): Linear(in_features=200, out_features=80, bias=True)
    (3): Linear(in_features=80, out_features=30, bias=True)
    (4): Linear(in_features=30, out_features=10, bias=True)
  )
  (decoder_lin): Sequential(
    (0): Linear(in_features=10, out_features=30, bias=True)
    (1): Linear(in_features=30, out_features=80, bias=True)
    (2): Linear(in_features=80, out_features=200, bias=True)
    (3): Linear(in_features=200, out_features=500, bias=True)
    (4): Linear(in_features=500, out_features=1152, bias=True)
  )
  (decoder_conv): ConvTranspose1d(6, 1, kernel_size=(9,), stride=(1,))
)
Params size:   24
6  ||  6  ||  500  ||  500  ||  200  ||  200  ||  80  ||  80  ||  30  ||  30  ||  10  ||  10  ||  30  ||  30  ||  80  ||  80  ||  200  ||  200  ||  500  ||  500  ||  1152  ||  1152  ||  6  ||  1  ||  
Autoencoder learn file:  ./results/IndianPines/autoencoder/convolutional_1.pth

***   Checking if model file exists   ***
---------------------------------
…
./results/JasperRidge/data/jasper_ridge_gaussian_mixture_full_linear_autoencoder_1.txt
Result files exist 
Ending procedure [*]
========
Autoencoder : 		 linear 	 2
Dataloader:   		 jasper_ridge
Clustering:   		 clustering_kmeans
Param : 		 
========
Lokalizacja obrazu: 	 data/Jasper_ridge/jasperRidge2_R198.mat
Nazwa obrazu:  			 Y
Rozmiar: 				 wiersze:  10000  kolumny:  198
Iloc pikseli (ilo kolumn * ilo wierszy):  1980000

***   Converting image to uint8   ***
---------------------------------

***   Creating autoencoder   ***
---------------------------------
Autoencoder(
  (encoder): Sequential(
    (0): Linear(in_features=198, out_features=90, bias=True)
    (1): Linear(in_features=90, out_features=40, bias=True)
    (2): Linear(in_features=40, out_features=20, bias=True)
  )
  (decoder): Sequential(
    (0): Linear(in_features=20, out_features=40, bias=True)
    (1): Linear(in_features=40, out_features=90, bias=True)
    (2): Linear(in_features=90, out_features=198, bias=True)
  )
)
Params size:   12
90  ||  90  ||  40  ||  40  ||  20  ||  20  ||  40  ||  40  ||  90  ||  90  ||  198  ||  198  ||  
Autoencoder learn file:  ./results/JasperRidge/autoencoder/linear_2.pth

***   Checking if model file exists   ***
---------------------------------
	 File exists

***   Loading model from file   ***
---------------------------------
…
./results/JasperRidge/data/jasper_ridge_gaussian_mixture_full_linear_autoencoder_2.txt
Result files exist 
Ending procedure [*]
========
Autoencoder : 		 linear 	 3
Dataloader:   		 jasper_ridge
Clustering:   		 clustering_kmeans
Param : 		 
========
Lokalizacja obrazu: 	 data/Jasper_ridge/jasperRidge2_R198.mat
Nazwa obrazu:  			 Y
Rozmiar: 				 wiersze:  10000  kolumny:  198
Iloc pikseli (ilo kolumn * ilo wierszy):  1980000

***   Converting image to uint8   ***
---------------------------------

***   Creating autoencoder   ***
---------------------------------
Autoencoder(
  (encoder): Sequential(
    (0): Linear(in_features=198, out_features=90, bias=True)
    (1): Linear(in_features=90, out_features=40, bias=True)
    (2): Linear(in_features=40, out_features=15, bias=True)
    (3): Linear(in_features=15, out_features=7, bias=True)
  )
  (decoder): Sequential(
    (0): Linear(in_features=7, out_features=15, bias=True)
    (1): Linear(in_features=15, out_features=40, bias=True)
    (2): Linear(in_features=40, out_features=90, bias=True)
    (3): Linear(in_features=90, out_features=198, bias=True)
  )
)
Params size:   16
90  ||  90  ||  40  ||  40  ||  15  ||  15  ||  7  ||  7  ||  15  ||  15  ||  40  ||  40  ||  90  ||  90  ||  198  ||  198  ||  
Autoencoder learn file:  ./results/JasperRidge/autoencoder/linear_3.pth

***   Checking if model file exists   ***
---------------------------------
	 File exists

***   Loading model from file   ***
---------------------------------
…
---------------------------------
Path:  ./results/JasperRidge/data/jasper_ridge_gaussian_mixture_full_none_autoencoder_none.txt
========
Autoencoder : 		 convolutional 	 1
Dataloader:   		 jasper_ridge
Clustering:   		 clustering_kmeans
Param : 		 
========
Lokalizacja obrazu: 	 data/Jasper_ridge/jasperRidge2_R198.mat
Nazwa obrazu:  			 Y
Rozmiar: 				 wiersze:  10000  kolumny:  198
Iloc pikseli (ilo kolumn * ilo wierszy):  1980000

***   Converting image to uint8   ***
---------------------------------

***   Creating autoencoder   ***
---------------------------------
First size:  198
Autoencoder(
  (encoder_conv): Conv1d(1, 6, kernel_size=(9,), stride=(1,))
  (encoder_lin): Sequential(
    (0): Linear(in_features=1140, out_features=500, bias=True)
    (1): Linear(in_features=500, out_features=200, bias=True)
    (2): Linear(in_features=200, out_features=80, bias=True)
    (3): Linear(in_features=80, out_features=30, bias=True)
    (4): Linear(in_features=30, out_features=10, bias=True)
  )
  (decoder_lin): Sequential(
    (0): Linear(in_features=10, out_features=30, bias=True)
    (1): Linear(in_features=30, out_features=80, bias=True)
    (2): Linear(in_features=80, out_features=200, bias=True)
    (3): Linear(in_features=200, out_features=500, bias=True)
    (4): Linear(in_features=500, out_features=1140, bias=True)
  )
  (decoder_conv): ConvTranspose1d(6, 1, kernel_size=(9,), stride=(1,))
)
Params size:   24
6  ||  6  ||  500  ||  500  ||  200  ||  200  ||  80  ||  80  ||  30  ||  30  ||  10  ||  10  ||  30  ||  30  ||  80  ||  80  ||  200  ||  200  ||  500  ||  500  ||  1140  ||  1140  ||  6  ||  1  ||  
Autoencoder learn file:  ./results/JasperRidge/autoencoder/convolutional_1.pth

***   Checking if model file exists   ***
---------------------------------
…
***   Printing   ***
---------------------------------

***   Saving image   ***
---------------------------------
Path:  ./results/JasperRidge/img/jasper_ridge_gaussian_mixture_full_convolutional_autoencoder_1.png

***   Saving data   ***
---------------------------------
Path:  ./results/JasperRidge/data/jasper_ridge_gaussian_mixture_full_convolutional_autoencoder_1.txt
========
Autoencoder : 		 linear 	 1
Dataloader:   		 samson
Clustering:   		 clustering_kmeans
Param : 		 
========

***   Creating autoencoder   ***
---------------------------------
Autoencoder(
  (encoder): Sequential(
    (0): Linear(in_features=156, out_features=90, bias=True)
    (1): Linear(in_features=90, out_features=40, bias=True)
  )
  (decoder): Sequential(
    (0): Linear(in_features=40, out_features=90, bias=True)
    (1): Linear(in_features=90, out_features=156, bias=True)
  )
)
Params size:   8
90  ||  90  ||  40  ||  40  ||  90  ||  90  ||  156  ||  156  ||  
Autoencoder learn file:  ./results/Samson/autoencoder/linear_1.pth

***   Checking if model file exists   ***
---------------------------------
	 File doesnt exist

***   Creating optimizer   ***
---------------------------------

***   Learning   ***
---------------------------------
Is CUDA available:  True
Checking for multiple GPUs
No multiple GPUs
epoch [ 1 / 10 ], loss: 0.0001119244479923509

***   Saving model to file   ***
---------------------------------
EXCEPTION!!!!!

========
Autoencoder : 		 linear 	 1
Dataloader:   		 samson
Clustering:   		 gaussian_mixture
Param : 		 spherical
========

***   Creating autoencoder   ***
---------------------------------
Autoencoder(
  (encoder): Sequential(
    (0): Linear(in_features=156, out_features=90, bias=True)
    (1): Linear(in_features=90, out_features=40, bias=True)
  )
  (decoder): Sequential(
    (0): Linear(in_features=40, out_features=90, bias=True)
    (1): Linear(in_features=90, out_features=156, bias=True)
  )
)
Params size:   8
90  ||  90  ||  40  ||  40  ||  90  ||  90  ||  156  ||  156  ||  
Autoencoder learn file:  ./results/Samson/autoencoder/linear_1.pth

***   Checking if model file exists   ***
---------------------------------
	 File doesnt exist

***   Creating optimizer   ***
---------------------------------

***   Learning   ***
---------------------------------
Is CUDA available:  True
Checking for multiple GPUs
No multiple GPUs
epoch [ 1 / 10 ], loss: 1.3420410141407046e-05

***   Saving model to file   ***
---------------------------------
EXCEPTION!!!!!

========
Autoencoder : 		 linear 	 2
Dataloader:   		 samson
Clustering:   		 clustering_kmeans
Param : 		 
========

***   Creating autoencoder   ***
---------------------------------
Autoencoder(
  (encoder): Sequential(
    (0): Linear(in_features=156, out_features=90, bias=True)
    (1): Linear(in_features=90, out_features=40, bias=True)
    (2): Linear(in_features=40, out_features=20, bias=True)
  )
  (decoder): Sequential(
    (0): Linear(in_features=20, out_features=40, bias=True)
    (1): Linear(in_features=40, out_features=90, bias=True)
    (2): Linear(in_features=90, out_features=156, bias=True)
  )
)
Params size:   12
90  ||  90  ||  40  ||  40  ||  20  ||  20  ||  40  ||  40  ||  90  ||  90  ||  156  ||  156  ||  
Autoencoder learn file:  ./results/Samson/autoencoder/linear_2.pth

***   Checking if model file exists   ***
---------------------------------
	 File doesnt exist

***   Creating optimizer   ***
---------------------------------

***   Learning   ***
---------------------------------
Is CUDA available:  True
Checking for multiple GPUs
No multiple GPUs
epoch [ 1 / 10 ], loss: 6.253476749407127e-05

***   Saving model to file   ***
---------------------------------
EXCEPTION!!!!!

========
Autoencoder : 		 linear 	 2
Dataloader:   		 samson
Clustering:   		 gaussian_mixture
Param : 		 spherical
========

***   Creating autoencoder   ***
---------------------------------
Autoencoder(
  (encoder): Sequential(
    (0): Linear(in_features=156, out_features=90, bias=True)
    (1): Linear(in_features=90, out_features=40, bias=True)
    (2): Linear(in_features=40, out_features=20, bias=True)
  )
  (decoder): Sequential(
    (0): Linear(in_features=20, out_features=40, bias=True)
    (1): Linear(in_features=40, out_features=90, bias=True)
    (2): Linear(in_features=90, out_features=156, bias=True)
  )
)
Params size:   12
90  ||  90  ||  40  ||  40  ||  20  ||  20  ||  40  ||  40  ||  90  ||  90  ||  156  ||  156  ||  
Autoencoder learn file:  ./results/Samson/autoencoder/linear_2.pth

***   Checking if model file exists   ***
---------------------------------
	 File doesnt exist

***   Creating optimizer   ***
---------------------------------

***   Learning   ***
---------------------------------
Is CUDA available:  True
Checking for multiple GPUs
No multiple GPUs
epoch [ 1 / 10 ], loss: 0.00045734026934951544

***   Saving model to file   ***
---------------------------------
EXCEPTION!!!!!

========
Autoencoder : 		 linear 	 3
Dataloader:   		 samson
Clustering:   		 clustering_kmeans
Param : 		 
========

***   Creating autoencoder   ***
---------------------------------
Autoencoder(
  (encoder): Sequential(
    (0): Linear(in_features=156, out_features=90, bias=True)
    (1): Linear(in_features=90, out_features=40, bias=True)
    (2): Linear(in_features=40, out_features=15, bias=True)
    (3): Linear(in_features=15, out_features=7, bias=True)
  )
  (decoder): Sequential(
    (0): Linear(in_features=7, out_features=15, bias=True)
    (1): Linear(in_features=15, out_features=40, bias=True)
    (2): Linear(in_features=40, out_features=90, bias=True)
    (3): Linear(in_features=90, out_features=156, bias=True)
  )
)
Params size:   16
90  ||  90  ||  40  ||  40  ||  15  ||  15  ||  7  ||  7  ||  15  ||  15  ||  40  ||  40  ||  90  ||  90  ||  156  ||  156  ||  
Autoencoder learn file:  ./results/Samson/autoencoder/linear_3.pth

***   Checking if model file exists   ***
---------------------------------
	 File doesnt exist

***   Creating optimizer   ***
---------------------------------

***   Learning   ***
---------------------------------
Is CUDA available:  True
Checking for multiple GPUs
No multiple GPUs
epoch [ 1 / 10 ], loss: 0.002806534292176366

***   Saving model to file   ***
---------------------------------
EXCEPTION!!!!!

========
Autoencoder : 		 linear 	 3
Dataloader:   		 samson
Clustering:   		 gaussian_mixture
Param : 		 spherical
========

***   Creating autoencoder   ***
---------------------------------
Autoencoder(
  (encoder): Sequential(
    (0): Linear(in_features=156, out_features=90, bias=True)
    (1): Linear(in_features=90, out_features=40, bias=True)
    (2): Linear(in_features=40, out_features=15, bias=True)
    (3): Linear(in_features=15, out_features=7, bias=True)
  )
  (decoder): Sequential(
    (0): Linear(in_features=7, out_features=15, bias=True)
    (1): Linear(in_features=15, out_features=40, bias=True)
    (2): Linear(in_features=40, out_features=90, bias=True)
    (3): Linear(in_features=90, out_features=156, bias=True)
  )
)
Params size:   16
90  ||  90  ||  40  ||  40  ||  15  ||  15  ||  7  ||  7  ||  15  ||  15  ||  40  ||  40  ||  90  ||  90  ||  156  ||  156  ||  
Autoencoder learn file:  ./results/Samson/autoencoder/linear_3.pth

***   Checking if model file exists   ***
---------------------------------
	 File doesnt exist

***   Creating optimizer   ***
---------------------------------
…
Result shape:  (95, 95)

***   Printing   ***
---------------------------------

***   Saving image   ***
---------------------------------
Path:  ./results/Samson/img/samson_gaussian_mixture_full_none_autoencoder_none.png

***   Saving data   ***
---------------------------------
Path:  ./results/Samson/data/samson_gaussian_mixture_full_none_autoencoder_none.txt
========
Autoencoder : 		 convolutional 	 1
Dataloader:   		 samson
Clustering:   		 clustering_kmeans
Param : 		 
========

***   Creating autoencoder   ***
---------------------------------
First size:  156
Autoencoder(
  (encoder_conv): Conv1d(1, 6, kernel_size=(9,), stride=(1,))
  (encoder_lin): Sequential(
    (0): Linear(in_features=888, out_features=500, bias=True)
    (1): Linear(in_features=500, out_features=200, bias=True)
    (2): Linear(in_features=200, out_features=80, bias=True)
    (3): Linear(in_features=80, out_features=30, bias=True)
    (4): Linear(in_features=30, out_features=10, bias=True)
  )
  (decoder_lin): Sequential(
    (0): Linear(in_features=10, out_features=30, bias=True)
    (1): Linear(in_features=30, out_features=80, bias=True)
    (2): Linear(in_features=80, out_features=200, bias=True)
    (3): Linear(in_features=200, out_features=500, bias=True)
    (4): Linear(in_features=500, out_features=888, bias=True)
  )
  (decoder_conv): ConvTranspose1d(6, 1, kernel_size=(9,), stride=(1,))
)
Params size:   24
6  ||  6  ||  500  ||  500  ||  200  ||  200  ||  80  ||  80  ||  30  ||  30  ||  10  ||  10  ||  30  ||  30  ||  80  ||  80  ||  200  ||  200  ||  500  ||  500  ||  888  ||  888  ||  6  ||  1  ||  
Autoencoder learn file:  ./results/Samson/autoencoder/convolutional_1.pth

***   Checking if model file exists   ***
---------------------------------
…
