…
./results/SalinasA/data/salinas_a_gaussian_mixture_full_linear_autoencoder_1.txt
Result files exist
Ending procedure [*]
========
Autoencoder : 		 linear 	 2
Dataloader:   		 salinas_a
Clustering:   		 clustering_kmeans
Param :
========
Lokalizacja obrazu: 	 data/SalinasA/SalinasA_corrected.mat
Nazwa obrazu:  			 salinasA_corrected
Rozmiar: 				 wiersze:  83  kolumny:  86  głębokość:  204
Ilośc pikseli (ilość kolumn * ilość wierszy):  7138

***   Converting image to uint8   ***
---------------------------------

***   Creating autoencoder   ***
---------------------------------
Autoencoder(
  (encoder): Sequential(
    (0): Linear(in_features=204, out_features=90, bias=True)
    (1): Linear(in_features=90, out_features=40, bias=True)
    (2): Linear(in_features=40, out_features=20, bias=True)
  )
  (decoder): Sequential(
    (0): Linear(in_features=20, out_features=40, bias=True)
    (1): Linear(in_features=40, out_features=90, bias=True)
    (2): Linear(in_features=90, out_features=204, bias=True)
  )
)
Params size:   12
90  ||  90  ||  40  ||  40  ||  20  ||  20  ||  40  ||  40  ||  90  ||  90  ||  204  ||  204  ||
Autoencoder learn file:  ./results/SalinasA/autoencoder/linear_2.pth

***   Checking if model file exists   ***
---------------------------------
	 File exists

***   Loading model from file   ***
---------------------------------

***   If overwrite data   ***
…
./results/SalinasA/data/salinas_a_gaussian_mixture_full_linear_autoencoder_2.txt
Result files exist
Ending procedure [*]
========
Autoencoder : 		 linear 	 3
Dataloader:   		 salinas_a
Clustering:   		 clustering_kmeans
Param :
========
Lokalizacja obrazu: 	 data/SalinasA/SalinasA_corrected.mat
Nazwa obrazu:  			 salinasA_corrected
Rozmiar: 				 wiersze:  83  kolumny:  86  głębokość:  204
Ilośc pikseli (ilość kolumn * ilość wierszy):  7138

***   Converting image to uint8   ***
---------------------------------

***   Creating autoencoder   ***
---------------------------------
Autoencoder(
  (encoder): Sequential(
    (0): Linear(in_features=204, out_features=90, bias=True)
    (1): Linear(in_features=90, out_features=40, bias=True)
    (2): Linear(in_features=40, out_features=15, bias=True)
    (3): Linear(in_features=15, out_features=7, bias=True)
  )
  (decoder): Sequential(
    (0): Linear(in_features=7, out_features=15, bias=True)
    (1): Linear(in_features=15, out_features=40, bias=True)
    (2): Linear(in_features=40, out_features=90, bias=True)
    (3): Linear(in_features=90, out_features=204, bias=True)
  )
)
Params size:   16
90  ||  90  ||  40  ||  40  ||  15  ||  15  ||  7  ||  7  ||  15  ||  15  ||  40  ||  40  ||  90  ||  90  ||  204  ||  204  ||
Autoencoder learn file:  ./results/SalinasA/autoencoder/linear_3.pth

***   Checking if model file exists   ***
---------------------------------
	 File exists

***   Loading model from file   ***
---------------------------------
…
./results/SalinasA/data/salinas_a_gaussian_mixture_full_none_autoencoder_none.txt
Result files exist
Ending procedure [*]
========
Autoencoder : 		 convolutional 	 1
Dataloader:   		 salinas_a
Clustering:   		 clustering_kmeans
Param :
========
Lokalizacja obrazu: 	 data/SalinasA/SalinasA_corrected.mat
Nazwa obrazu:  			 salinasA_corrected
Rozmiar: 				 wiersze:  83  kolumny:  86  głębokość:  204
Ilośc pikseli (ilość kolumn * ilość wierszy):  7138

***   Converting image to uint8   ***
---------------------------------

***   Creating autoencoder   ***
---------------------------------
First size:  204
Autoencoder(
  (encoder_conv): Conv1d(1, 6, kernel_size=(9,), stride=(1,))
  (encoder_lin): Sequential(
    (0): Linear(in_features=1176, out_features=500, bias=True)
    (1): Linear(in_features=500, out_features=200, bias=True)
    (2): Linear(in_features=200, out_features=80, bias=True)
    (3): Linear(in_features=80, out_features=30, bias=True)
    (4): Linear(in_features=30, out_features=10, bias=True)
  )
  (decoder_lin): Sequential(
    (0): Linear(in_features=10, out_features=30, bias=True)
    (1): Linear(in_features=30, out_features=80, bias=True)
    (2): Linear(in_features=80, out_features=200, bias=True)
    (3): Linear(in_features=200, out_features=500, bias=True)
    (4): Linear(in_features=500, out_features=1176, bias=True)
  )
  (decoder_conv): ConvTranspose1d(6, 1, kernel_size=(9,), stride=(1,))
)
Params size:   24
6  ||  6  ||  500  ||  500  ||  200  ||  200  ||  80  ||  80  ||  30  ||  30  ||  10  ||  10  ||  30  ||  30  ||  80  ||  80  ||  200  ||  200  ||  500  ||  500  ||  1176  ||  1176  ||  6  ||  1  ||
Autoencoder learn file:  ./results/SalinasA/autoencoder/convolutional_1.pth

***   Checking if model file exists   ***
---------------------------------
…
